gnn/best_model.pkl (torch, 87709 bytes, 11 tensors)

conv1.lin_l.weight f4 [64, 31]
0	0x3e053aea	0.13010755
1	0xbda0827d	-0.07837389
2	0x3de3cd16	0.111231014
3	0xbe077dce	-0.13231584
4	0xbd6015ac	-0.054708168
5	0xbdb55568	-0.088541806
6	0x3ab58e54	0.0013851621
7	0x3d9d5c71	0.076836474
8	0x3e2b6e3a	0.16741267
9	0xbdf86323	-0.12128284
10	0x3db170b7	0.08664077
11	0x3dbefe68	0.09325868
12	0xbe44eee5	-0.19231756
13	0x3d49f6cf	0.04930764
14	0xbd379163	-0.044816386
15	0xbe2550b5	-0.16144069
16	0x3ccc37a3	0.024928873
17	0xbdb61914	-0.08891502
18	0xbd1b70ae	-0.037949257
19	0x3cb5ac5f	0.02217692
20	0xbd053e94	-0.032530382
21	0x3d3b91e8	0.045793444
22	0x3e59969d	0.2124886
23	0x3d83355f	0.06406664
24	0xbcb84865	-0.022495458
25	0x3d4d1f78	0.05007884
26	0xbba46d84	-0.005017938
27	0x3d865365	0.06558875
28	0x3d843957	0.06456249
29	0xbdb5f31a	-0.088842586
30	0xbd82d07a	-0.0638742
31	0x3d991133	0.074739836
32	0xbe8abbed	-0.270965
33	0xbe60f483	-0.21968274
34	0xbdf40eb5	-0.11916868
35	0x3da35c55	0.07976595
36	0x3da6aacf	0.08138048
37	0x3d4eab13	0.050456118
38	0xbcb08baa	-0.021550972
39	0x3e55753b	0.20845501
40	0x3de3837a	0.111090615
41	0x3d78849e	0.06067335
42	0xbe471dd6	-0.19444975
43	0x3e587c2c	0.21141118
44	0x3db531ec	0.088474125
45	0x3dbb403c	0.09143111
46	0x3bfba2f3	0.007679337
47	0x3df08a2c	0.11745104
48	0xbd1c4ee1	-0.038161162
49	0x3dc49f3c	0.09600684
50	0xbdb363d7	-0.08759277
51	0xbd854003	-0.0650635
52	0xbe56c41d	-0.20973249
53	0xbe745e2b	-0.23864047
54	0x3def7358	0.11691922
55	0xbd361042	-0.0444491
56	0x3da68b07	0.08131986
57	0x3cc45fba	0.023971427
58	0x3caff1e6	0.02147765
59	0xbbac0287	-0.0052493247
60	0x3d613181	0.05497885
61	0xbcfc76f8	-0.030818447
62	0xbe312275	-0.172983
63	0x3da2eeed	0.07955728
64	0xbe2d257e	-0.16908833
65	0x3e3b2160	0.1827445
66	0xbe398c1d	-0.18119855
67	0x3e247ecd	0.16063996
68	0xbde5ccc8	-0.112206995
69	0xbe4868c4	-0.19571215
70	0x3c1b5cfd	0.009482619
71	0xbe124a84	-0.14286238
72	0x3e584b28	0.2112242
73	0xbe371547	-0.1787921
74	0x3ced50fd	0.028969282
75	0xbd1f7fc4	-0.038940206
76	0x3e44f5de	0.19234416
77	0x3c745c39	0.014914566
78	0xbde12b0b	-0.10994538
79	0xbd3e4e70	-0.046461523
80	0xbdabbe72	-0.08385934
81	0x3dc7da76	0.09758465
82	0x3d9c1b63	0.07622411
83	0x3d92e187	0.07171922
84	0x3d9a92d5	0.07547537
85	0xbdb2ad80	-0.08724499
86	0xbc6f4b47	-0.01460535
87	0xbe6f29d7	-0.23355804
88	0x3dbb2907	0.09138685
89	0xbd20ad5f	-0.03922784
90	0x3ddcbe9f	0.107785456
91	0x3da64a0e	0.081195936
92	0x3e025e36	0.12731251
93	0x3d82ea5a	0.06392355
94	0xbe25e174	-0.16199285
95	0xbd5b0b4b	-0.053477567
96	0xbe3b051f	-0.18263672
97	0xbcf1f3bf	-0.029535173
98	0xbe0f2306	-0.13978204
99	0x3bd320ef	0.006443135
100	0xbdb20fd6	-0.08694427
101	0xbd80173a	-0.0625443
102	0xbdb3aee8	-0.08773595
103	0xbd092def	-0.03349107
104	0xbd24c3b7	-0.04022571
105	0x3dde020a	0.10840233
106	0xbd56b9b6	-0.0524232
107	0xbc9f291b	-0.01942878
108	0xbe55c3bf	-0.20875452
109	0x3d44299e	0.04789125
110	0xbda7cf37	-0.0819382
111	0xbb17dc8e	-0.0023172232
112	0x3dd425d4	0.10358778
113	0x3ddf5f97	0.10906904
114	0x3dd404c2	0.1035247
115	0xbe367df8	-0.17821491
116	0xbdd51643	-0.10404637
117	0xbe3b14d0	-0.18269658
118	0x3dc2e539	0.09516377
119	0x3d14be42	0.036314256
120	0x3bce0a0d	0.0062878192
121	0x3d040eac	0.032240555
122	0x3d4f579e	0.050620668
123	0xbe32a260	-0.17444754
124	0x3e231c84	0.15928847
125	0x3a998606	0.0011712916
126	0xbdafaa67	-0.085774235
127	0xbe68a741	-0.22720052
128	0xbe46f539	-0.19429483
129	0x3ca60786	0.02026726
130	0xbd63f29e	-0.0556513
131	0x3d98955f	0.07450365
132	0x3e030c93	0.12797765
133	0x3e4b3a2e	0.19846413
134	0xbcbd9db2	-0.023146484
135	0xbe67e7c4	-0.22647005
136	0x3dece6e5	0.11567477
137	0x3d83c658	0.064343154
138	0x3df29555	0.11844889
139	0x3d0d647e	0.034519665
140	0x3e842600	0.25810242
141	0xbdc44e29	-0.0958522
142	0x3d316d33	0.04331703
143	0x3d0ad738	0.033896655
144	0x3e1edb0e	0.1551325
145	0xbd1596de	-0.03652083
146	0x3e8f6420	0.28006077
147	0xbdcb35e5	-0.09922389
148	0xbe7c7cb6	-0.24656948
149	0xbd2d20dd	-0.04226767
150	0x3e2275f4	0.15865308
151	0xbe0ebabd	-0.13938423
152	0x3e336f0c	0.1752283
153	0x3d82c04a	0.063843325
154	0x3ddaf2fa	0.10690875
155	0xbe626cfb	-0.22111885
156	0xbe283fb6	-0.16430554
157	0xbe0312de	-0.12800166
158	0x3e11f765	0.1425453
159	0x3d69cdf5	0.05708118
160	0xbe5c8419	-0.21534766
161	0xbdf69200	-0.12039566
162	0xbdeb9d59	-0.11504621
163	0x3e27f068	0.16400301
164	0xbe7be3cd	-0.24598618
165	0xbd9a0ecb	-0.07522353
166	0x3cfc097f	0.030766247
167	0xbe0f0081	-0.13965036
168	0x3e2fadd2	0.17156151
169	0xbe37de00	-0.1795578
170	0x3e16feee	0.14745685
171	0xbe8393f6	-0.25698823
172	0xbdb19271	-0.086705096
173	0x3dc69bd0	0.096976876
174	0xbc3c1246	-0.011478966
175	0xbe12b18e	-0.14325544
176	0xbd1396ff	-0.036032673
177	0xbdc480c1	-0.0959487
178	0x3c49a0c0	0.012306392
179	0x3e040dc4	0.12895876
180	0xbe8ccf6b	-0.27501997
181	0xbd9a7d33	-0.07543411
182	0x3d4e2f5f	0.050338145
183	0xbe6a4b5e	-0.22880313
184	0x3e03ae9d	0.12859578
185	0xbcc20650	-0.02368465
186	0xbe912e0b	-0.2835544
187	0x3d17747e	0.03697633
188	0xbe09d8ef	-0.1346166
189	0xbb91ecb5	-0.0044532665
190	0x3da7afe7	0.081878476
191	0x3b5e3c20	0.003391035
192	0xbe381d52	-0.17979935
193	0xbdf12666	-0.11774902
194	0xbc8e8a2c	-0.01739987
195	0xbc8da03f	-0.017288325
196	0xbe33a006	-0.17541513
197	0x3e4751b6	0.19464764
198	0xbcf2b788	-0.02962853
199	0x3e509f7b	0.20373337
200	0x3e4f43ef	0.20240758
201	0xbe1c5dac	-0.15270108
202	0xbe24ee1e	-0.1610646
203	0x3da5b617	0.080913715
204	0xbc836ca0	-0.016043007
205	0x3bbec6de	0.0058220467
206	0x3d1f03d5	0.038822014
207	0x3d3a4940	0.045480013
208	0xbd884cb1	-0.06655253
209	0xbded156b	-0.11576351
210	0x3dedca35	0.116108336
211	0xbe69a450	-0.22816586
212	0x3daede61	0.08538509
213	0x3d51f416	0.05125817
214	0x3da21977	0.07915013
215	0xbdc981af	-0.09839188
216	0x3cf9464d	0.03042903
217	0xbd755150	-0.059892
218	0xbdee8de5	-0.11648158
219	0x3e573c2e	0.2101905
220	0x3da54af5	0.080709375
221	0x3dcd7598	0.10032195
222	0xbe8806e5	-0.2656776
223	0xbc0e5e47	-0.00868947
224	0x3dd6ff1f	0.10497879
225	0x3d9d47ac	0.07679686
226	0x3e08eff7	0.1337279
227	0x3e2eb97f	0.17062949
228	0x3b827347	0.0039810273
229	0x3d092d5c	0.033490524
230	0x3dbb9cae	0.09160744
231	0x3d05e183	0.032685768
232	0xbe5fa449	-0.21840014
233	0xbbf8ac94	-0.0075889323
234	0xbd147cd6	-0.036251865
235	0xbe05e707	-0.13076411
236	0x3df4ed07	0.11959272
237	0x3d0a8580	0.03381872
238	0x3cefc536	0.029268842
239	0xbe15618e	-0.14587995
240	0xbdb15d0a	-0.08660324
241	0x3d6875d4	0.056752995
242	0xbe8b033e	-0.2715091
243	0xbdb75b52	-0.08952965
244	0x3ccb9f5c	0.024856262
245	0xbc2be5e6	-0.010491824
246	0xbdae92b5	-0.08524076
247	0xbe69851f	-0.22804688
248	0x3d09169c	0.033468828
249	0xbdfa1d39	-0.12212605
250	0x3deedbd2	0.11663021
251	0x3df22ecf	0.11825334
252	0xbca2edea	-0.019888837
253	0x3e0c2efa	0.13689795
254	0xbdc42085	-0.09576515
255	0x3d905723	0.0704787

conv1.lin_l.bias f4 [64]
0	0x3debd956	0.11516063
1	0xbd590482	-0.052982815
2	0xbcd35585	-0.025797615
3	0x3df033b1	0.11728609
4	0xbe119846	-0.14218244
5	0x3cc8668a	0.024462957
6	0x3dbed076	0.093171045
7	0x3e2f1305	0.17097099
8	0xbd9470e8	-0.07248098
9	0xbd4b3182	-0.04960776
10	0x3cf5bfc1	0.029998662
11	0x3ddfdd97	0.10930937
12	0x3dbaa55d	0.09113572
13	0x3d638496	0.055546366
14	0xbdd9c6a6	-0.10633592
15	0xbe2ebab8	-0.17063415
16	0xbd8d2bac	-0.068930954
17	0x3c54d152	0.012989359
18	0x3dbf76a9	0.093488045
19	0x3cff786b	0.03118535
20	0xbde5e3da	-0.112251
21	0x3d122ee0	0.035689235
22	0x3d2a62b6	0.041598044
23	0xbde6797e	-0.112536415
24	0xbd79ef74	-0.061019376
25	0xbc4bee28	-0.012446918
26	0xbd8f7cdd	-0.07006238
27	0xbe1f1f7b	-0.15539353
28	0xbda54745	-0.08070234
29	0xbc7b54c1	-0.015340031
30	0x3dc721a0	0.0972321
31	0xbe0b6531	-0.1361282
32	0xbd1b1bd2	-0.03786833
33	0xbc4d4003	-0.012527469
34	0xbdb5ffb3	-0.088866614
35	0x3dad697f	0.084673874
36	0xbe289c45	-0.16465862
37	0x3d8e23f9	0.06940455
38	0xbe1d8913	-0.15384321
39	0xbd04a645	-0.03238513
40	0x3c54f7ea	0.01299856
41	0x3d4280c3	0.047486078
42	0xbcc0e016	-0.023544353
43	0xbe0548a1	-0.13015987
44	0xbd99adcb	-0.075038515
45	0xbe36f00e	-0.17865011
46	0xbd5e4062	-0.05426062
47	0x3de1fd7d	0.11034677
48	0x3d8fb8db	0.0701768
49	0xbdf1b139	-0.11801381
50	0xbc5c4b2c	-0.013445657
51	0x3deeff67	0.11669808
52	0x3d027c54	0.03185685
53	0xbe3c3d60	-0.18382788
54	0xbdcfb1db	-0.10141345
55	0xbc037e21	-0.008025677
56	0x3cb0bb11	0.021573575
57	0xbc939fe8	-0.018020585
58	0xbddbc472	-0.10730828
59	0x3c91f81b	0.017818501
60	0x3d975b10	0.07390416
61	0xbe33b6da	-0.17550221
62	0xbe19bad0	-0.1501267
63	0xbd1170a8	-0.035507828

conv1.lin_r.weight f4 [64, 31]
0	0x3e1d01c1	0.153327
1	0xbe8a1541	-0.2696934
2	0x3d30d39a	0.04317055
3	0xbe3a6aeb	-0.18204848
4	0x3dd499ce	0.103808984
5	0xbe098f62	-0.13433602
6	0xbc58f7a0	-0.013242632
7	0x3dfeafa6	0.12435846
8	0x3d987d8f	0.074458234
9	0xb9f8baa4	-0.00047441304
10	0xbd53db07	-0.051722553
11	0x3d0ee9f4	0.034891084
12	0xbda92f35	-0.08260957
13	0xbe2b2f85	-0.16717346
14	0xbdb42528	-0.087961495
15	0xbe92a9ad	-0.28645077
16	0x3d05d5bc	0.032674536
17	0x3d95468c	0.072888464
18	0xbd72bdd2	-0.059263058
19	0xbdd52f06	-0.1040936
20	0x3e71c6a3	0.2361093
21	0x3bc1ed32	0.0059181685
22	0x3e1c12b6	0.15241513
23	0xbdd77ca7	-0.105218224
24	0x3e4257e7	0.18978845
25	0x3dea4a81	0.11439992
26	0x3dafc176	0.085818216
27	0xbe55999e	-0.20859382
28	0xbc852f7e	-0.016257998
29	0x3e2983e6	0.16554222
30	0x3db81d1d	0.08989928
31	0x3d73a425	0.059482712
32	0x3e116022	0.14196828
33	0xbe1ba39f	-0.15199135
34	0x3c7b4cef	0.015338167
35	0xbd2265de	-0.03964793
36	0xbe30cbb2	-0.17265204
37	0xbdbd9572	-0.0925702
38	0x3e057c00	0.13035583
39	0xbdac1288	-0.08401972
40	0x3e36b860	0.17843771
41	0xbe126df1	-0.14299752
42	0xbcc85327	-0.024453713
43	0xba2e67d3	-0.0006653044
44	0xbe0d2a9a	-0.13785782
45	0x3e14ff59	0.14550532
46	0x3dd144bf	0.102181904
47	0x3db26f76	0.08712666
48	0xbdb11039	-0.08645672
49	0x3e0c7079	0.1371478
50	0x3d9546a5	0.07288865
51	0x3dbc9299	0.09207649
52	0x3e3f2bfc	0.18669122
53	0x3b6fad9d	0.0036571987
54	0xbc457165	-0.012050961
55	0x3d3af4bb	0.04564355
56	0x3d7d98fc	0.061913475
57	0xbdf94a86	-0.12172417
58	0xbd847e6c	-0.064694256
59	0x3d958cfc	0.07302281
60	0x3cdd6466	0.027025413
61	0xbcc20ba9	-0.0236872
62	0xbe744a94	-0.23856574
63	0x3dac8b93	0.08425059
64	0x3e0a9c10	0.13536096
65	0xbd5e5b41	-0.054286245
66	0xbe1237f6	-0.1427916
67	0x3d9159dd	0.07097218
68	0xbdce647f	-0.10077762
69	0x3d359a58	0.044336647
70	0x3cb05b6f	0.021527974
71	0x394eec4a	0.00019733715
72	0x3db12f70	0.08651626
73	0x3d0aeb2b	0.03391568
74	0xbe8f4113	-0.27979335
75	0x3d928623	0.07154491
76	0x3dc0e8ba	0.09419389
77	0xbcb7bf1a	-0.022429992
78	0x3e1158cf	0.14194034
79	0xbdbfbf5c	-0.09362671
80	0xbd459c4e	-0.048244767
81	0xbdba8938	-0.09108204
82	0x3e5b3b03	0.2140923
83	0x39906adb	0.00027545434
84	0x3e167953	0.14694719
85	0xbe0b9144	-0.13629633
86	0x3dcb702d	0.09933505
87	0x3d0c5d5d	0.034268726
88	0x3cedcf4a	0.029029507
89	0x3e8709c3	0.26374635
90	0xbd198687	-0.03748181
91	0x3e1bdca9	0.15220894
92	0x3e3e93a6	0.18611011
93	0x3db5de5e	0.08880304
94	0x3dadc906	0.08485608
95	0x3d9e9ef6	0.07745163
96	0xbdc367c4	-0.09541276
97	0xbdb57ea5	-0.08862046
98	0xbba5f249	-0.005064283
99	0x3e08de81	0.13366129
100	0x3c9c048f	0.019045142
101	0x3c07b6a4	0.008283291
102	0x3ced1570	0.028940886
103	0x3e41442c	0.18873662
104	0xbd16864d	-0.036749173
105	0x3d7761a3	0.060395848
106	0x3dc7793b	0.0973992
107	0x3c95b3a6	0.01827414
108	0xbd512034	-0.051056102
109	0xbdfd7dd9	-0.12377519
110	0xbd7a6008	-0.06112674
111	0x3c858ab9	0.0163015
112	0xbd607e8c	-0.054808185
113	0x3ce0f73a	0.027461637
114	0x3d4ecdab	0.05048911
115	0x3d8c8ff5	0.06863395
116	0x3ddc18bb	0.107469045
117	0x3e525e1f	0.20543717
118	0xbbf16ac1	-0.0073674624
119	0x3a79c2f0	0.0009527644
120	0x3d3b72c4	0.045763746
121	0x3dbaf4f6	0.09128754
122	0xbd52f760	-0.051505446
123	0xbdf12194	-0.11773983
124	0x3c66fbee	0.014098151
125	0xbe9b27c8	-0.30303788
126	0xbc9cea7e	-0.019154783
127	0x3dda5ee7	0.106626324
128	0x3e5bc071	0.2146013
129	0xbba97bd1	-0.005172231
130	0x3d20ae34	0.039228633
131	0xbdb01ec3	-0.08599617
132	0x3d26c112	0.04071147
133	0x3d724e91	0.059156958
134	0xbd932317	-0.07184427
135	0x3dafe8f5	0.08589355
136	0x3d9fe25e	0.07806848
137	0xbd174df5	-0.03693958
138	0xbe3bfe72	-0.18358782
139	0xbdf4c654	-0.119518906
140	0xbc1c82b4	-0.009552646
141	0xbdc0744b	-0.09397181
142	0xbdb014ad	-0.085976936
143	0xbe74a231	-0.23889996
144	0x3e12054e	0.14259836
145	0xbd926197	-0.0714752
146	0xbe104256	-0.14087805
147	0x3dc8d833	0.09806862
148	0x3e913357	0.28359482
149	0x3e02b14b	0.12762944
150	0xbe309bf1	-0.17246987
151	0xbe14755d	-0.14497896
152	0x3e724564	0.23659283
153	0xbe5090c8	-0.2036773
154	0x3dae1320	0.084997416
155	0x3dd9985a	0.10624762
156	0xbdcd592f	-0.10026776
157	0x3e2a137d	0.16608997
158	0xbd65bd7f	-0.05608892
159	0x3e197120	0.1498456
160	0xbdcd0ba5	-0.10011987
161	0xbd43a835	-0.047767837
162	0xbe305fbe	-0.17224023
163	0xbcc9f398	-0.024652287
164	0xbdda139c	-0.106482714
165	0x3e1e2fd4	0.15447932
166	0x3da0c569	0.07850153
167	0x3b8106e6	0.00393759
168	0x3e07bace	0.13254854
169	0xbd26b16e	-0.040696554
170	0xbdd30c6d	-0.103051044
171	0xbd04d42e	-0.032428913
172	0x3c885116	0.016640227
173	0xbda0e48d	-0.078560926
174	0xbe48dda0	-0.19615793
175	0x3d68547b	0.05672119
176	0xbdd52d10	-0.104089856
177	0x3e1557b1	0.14584233
178	0xbe76424f	-0.24048732
179	0x3d3ee37e	0.046603672
180	0xbd340f5c	-0.04395996
181	0x3df89174	0.12137118
182	0xbe7c75db	-0.24654333
183	0x3d81df86	0.06341462
184	0xbd85916a	-0.06521876
185	0xbe360c0e	-0.17778036
186	0xbe3c05d6	-0.18361601
187	0x3da11fd2	0.07867397
188	0x3def166b	0.11674198
189	0x3c32f9b9	0.010923796
190	0x3c0be3b9	0.00853818
191	0xbdbce29a	-0.09222908
192	0x3d969a31	0.073536284
193	0xbda4f736	-0.08054964
194	0xbe7b6672	-0.24550799
195	0xbe43a64e	-0.19106409
196	0x3cac9059	0.021064924
197	0xbdec4261	-0.11536098
198	0xbdf17111	-0.11789144
199	0xbd1cd6de	-0.03829085
200	0x3d52c6be	0.051459067
201	0x3dc89ca1	0.097954996
202	0x3db45bd9	0.08806581
203	0xbdc24715	-0.09486214
204	0x3db0970f	0.08622562
205	0xbe50874e	-0.20364115
206	0xbe3069aa	-0.17227808
207	0x3c9197be	0.017772552
208	0x3db81f6a	0.08990367
209	0xbd1e8c6a	-0.038708128
210	0xbd44867a	-0.04797981
211	0x3de8caf5	0.11366836
212	0x3ccbe6c3	0.02489031
213	0x3e55d762	0.20882943
214	0xbe195f74	-0.14977819
215	0x3d1d3a4a	0.038385667
216	0xbd6bc30a	-0.05755905
217	0x3da10d98	0.07863921
218	0x3cf8e7e7	0.030384017
219	0x3d5f9599	0.054586027
220	0x3d05f8eb	0.03270809
221	0xbe0cec3b	-0.1376199
222	0x3d023309	0.031786952
223	0xbe413212	-0.18866757
224	0xbd130724	-0.03589548
225	0x3d4c66cc	0.049902722
226	0xbe10327f	-0.14081763
227	0xbe2dde6c	-0.16979378
228	0xbe6aaf0c	-0.22918338
229	0xbda05f33	-0.07830658
230	0xbc4b8adf	-0.012423246
231	0x3d73beb9	0.05950806
232	0xbd4852dc	-0.048907146
233	0xbe4b0963	-0.198278
234	0xbd3cf7d6	-0.046134792
235	0xbcd34091	-0.025787624
236	0xbe0418b1	-0.12900044
237	0x3d9282b3	0.07153835
238	0x3d4bb3c5	0.04973199
239	0xbe150fe6	-0.14556846
240	0xbe14f813	-0.14547758
241	0x3e5c7021	0.21527149
242	0x3c2f3fbf	0.010696351
243	0x3df27aa5	0.11839799
244	0xbd88d0bd	-0.06680439
245	0xbd9774a6	-0.07395296
246	0x3e0b748d	0.1361868
247	0x3e3a1854	0.18173343
248	0x3e021267	0.12702332
249	0x3cfac152	0.03060976
250	0x3e11c219	0.14234199
251	0x3dcb2007	0.09918218
252	0xbd86aa48	-0.06575447
253	0xbd04405c	-0.03228794
254	0x3e1b40cc	0.15161437
255	0x3e0735a2	0.13204053

conv2.lin_l.weight f4 [64, 64]
0	0x3bff17c7	0.007784817
1	0xbd175d30	-0.036954105
2	0x3d725fe3	0.059173476
3	0x3d0e4e1e	0.034742467
4	0xbd62ba9c	-0.055353746
5	0xbd43e2ef	-0.047823843
6	0xbd950e10	-0.07278073
7	0xbe155672	-0.14583758
8	0x3d3af45e	0.045643203
9	0xbda7f4ba	-0.08200975
10	0x3e4733c0	0.19453335
11	0x3e25482b	0.16140811
12	0x3d08788a	0.03331808
13	0x3d85f1aa	0.065402344
14	0x3e00f489	0.12593283
15	0xbdf45bc8	-0.119315684
16	0xbb8f0f5f	-0.004365846
17	0xbe2e6160	-0.17029333
18	0x3d15197d	0.03640126
19	0x3dcbe924	0.099565774
20	0xbdde6e61	-0.10860897
21	0x3d07ef68	0.0331873
22	0x3d40116a	0.046891607
23	0xbda459e0	-0.08024955
24	0xbd8a8e76	-0.067654535
25	0x3d10c12c	0.035340473
26	0x3dd483ef	0.10376727
27	0xbcf46d89	-0.029837387
28	0xbc5e58a8	-0.013570942
29	0xbdc76bb3	-0.09737339
30	0xbc37cf3f	-0.011218845
31	0x3e854d9d	0.26035777
32	0x3d34b02e	0.04411333
33	0x3dbfcff2	0.09365834
34	0xbdbc77f1	-0.092025645
35	0x3bada92d	0.0052997083
36	0xbcd8fee5	-0.02648873
37	0x3e46762c	0.19381016
38	0xbc1c3180	-0.009533286
39	0xbdaeb9c1	-0.085315235
40	0x3dad6e56	0.084683105
41	0xbd85a9f8	-0.065265596
42	0x3d5a6822	0.053321965
43	0xbe184d98	-0.1487335
44	0x3dac03b6	0.08399145
45	0x3e05066f	0.12990735
46	0x3d11424f	0.035463627
47	0xbd9f5d9e	-0.07781528
48	0x3e1bf14e	0.15228769
49	0xbd6c43ca	-0.057681836
50	0x3d7cd1b5	0.06172343
51	0x3e1ac3c0	0.15113735
52	0xbccc6f1e	-0.024955329
53	0x3df10329	0.11768181
54	0x3e04ef64	0.12981945
55	0x3b2a374b	0.0025972899
56	0xbda73b97	-0.08165663
57	0xbd057e33	-0.032591056
58	0x3da74253	0.08166947
59	0x3dc3f1b6	0.09567587
60	0x3dd19158	0.102328
61	0xbd5ac95e	-0.053414695
62	0xbd481b23	-0.048854005
63	0xbd50b0e4	-0.050949946
64	0xbca9cb43	-0.020726806
65	0xbd817bdc	-0.063224524
66	0x3dc85e37	0.09783595
67	0x3d128b7c	0.035777554
68	0x3e1f6870	0.15567183
69	0x3d4c1766	0.049827002
70	0xbcd77053	-0.026298678
71	0x3da85529	0.08219368
72	0xbd5085f2	-0.05090899
73	0xbd70adde	-0.058759563
74	0x3dd2f1cb	0.103000246
75	0x3a669428	0.0008795881
76	0xbdf92406	-0.12165074
77	0xbd91c4d3	-0.07117619
78	0x3d888414	0.06665817
79	0xbe0847e0	-0.13308668
80	0x3da1f9d6	0.079089805
81	0x3d9cd545	0.076578654
82	0xbd261c2e	-0.040554218
83	0xbd92e183	-0.07171919
84	0xbd161951	-0.036645237
85	0xbdd633fb	-0.10459133
86	0xbd121031	-0.035659973
87	0xbe3489c0	-0.17630672
88	0xbe17d09b	-0.1482567
89	0x3bc2e8d0	0.0059481636
90	0x3d0040a7	0.031311657
91	0xbdb33c36	-0.08751719
92	0xbd93e3ea	-0.072212055
93	0xbd96cf67	-0.073637776
94	0x3c905f7a	0.017623652
95	0x3deae892	0.114701405
96	0x3dc0e9c1	0.09419585
97	0xbcf811d2	-0.030281935
98	0xbce7d1e7	-0.028298331
99	0x3e2fc208	0.17163861
100	0x3c5f221d	0.013618973
101	0x3e0d1a4d	0.13779564
102	0xbbdadf52	-0.006679454
103	0x3d4c353b	0.049855452
104	0xbcc5a4c0	-0.02412641
105	0xbc2f82c7	-0.010712332
106	0xbd34ec8a	-0.044170894
107	0xbd85be41	-0.06530429
108	0x3da644a2	0.081185594
109	0xbcc64cf6	-0.02420662
110	0xbcaec8d8	-0.021336004
111	0xbc6d8390	-0.014496699
112	0x3da69b43	0.081350826
113	0xbc9bbde9	-0.019011455
114	0xbdb6739d	-0.0890877
115	0xbd12128b	-0.035662215
116	0x3df89263	0.12137296
117	0x3c267165	0.010158871
118	0x3d12c860	0.035835624
119	0xbbd85f18	-0.006603133
120	0xbd159a2b	-0.03652398
121	0xbcbc6a00	-0.022999763
122	0x3cbc6066	0.022995185
123	0x3e04bef6	0.12963471
124	0xbdb9c880	-0.090714455
125	0x3d8221a8	0.06354076
126	0xbcb95485	-0.02262331
127	0xbda4b82b	-0.0804294
128	0x3c2f4d71	0.010699616
129	0xbd82db49	-0.063894816
130	0x3db25af2	0.08708753
131	0xbb8e5a50	-0.004344262
132	0x3cc09995	0.023510734
133	0xbd98dc97	-0.07463949
134	0x3d47d4a8	0.04878679
135	0x3ddc28aa	0.107499436
136	0x3db525cb	0.08845099
137	0xbc4713e4	-0.012150738
138	0xbc52953c	-0.012852963
139	0x3b0f1ccf	0.002183724
140	0xbdd853dd	-0.10562871
141	0xbbba884b	-0.005692517
142	0x3dcf9752	0.10136284
143	0xbe0cefe8	-0.13763392
144	0xbc9804e8	-0.018557027
145	0xbb9de98c	-0.0048191007
146	0x3bfd938d	0.0077385367
147	0xbabfa8ef	-0.001462249
148	0x3d35b52c	0.044362232
149	0x3d4f00b7	0.05053779
150	0x3da28118	0.07934779
151	0x3d0baa42	0.034097917
152	0xbdf29821	-0.118454225
153	0xbd742552	-0.059605904
154	0x3e3bbb05	0.18333061
155	0xbdd2b9ed	-0.10289369
156	0xbd6815b2	-0.056661315
157	0xbcc2a20b	-0.023758909
158	0xbcde7302	-0.02715445
159	0x3e6b2510	0.22963357
160	0x3dcebaa9	0.10094196
161	0xbd1894e5	-0.037251372
162	0x3c96de55	0.018416563
163	0x3e282de3	0.16423754
164	0x3d27626f	0.040865358
165	0x3d86c856	0.0658118
166	0x3c9a4ac3	0.018834477
167	0x3c8c76ac	0.01714643
168	0x3d9ae0c8	0.07562405
169	0x3dd73dc5	0.105098285
170	0xbe29f03a	-0.16595545
171	0xbc07c122	-0.008285793
172	0x3e5bba5f	0.21457814
173	0x3dc63076	0.09677212
174	0x3ded4efb	0.1158733
175	0x3acd4a01	0.0015662314
176	0xbb696d63	-0.0035618178
177	0x3de355ad	0.11100326
178	0xbe2f44e5	-0.17116125
179	0x3d2c55f2	0.04207415
180	0xbd6bdb03	-0.057581913
181	0x3d64b6f7	0.05583855
182	0xbd72a535	-0.059239585
183	0xbdce8c61	-0.10085369
184	0xbd807043	-0.06271412
185	0xbcd836ec	-0.026393376
186	0x3e3bf795	0.18356164
187	0x383d9680	4.5201275e-05
188	0xbdf4b590	-0.11948693
189	0x3dfca2da	0.12335749
190	0x3cd4f706	0.025996696
191	0xbbc7eb5c	-0.006101055
192	0xbc28d45f	-0.010304539
193	0xbd84d91e	-0.06486724
194	0x3d91e614	0.07123962
195	0x3b757851	0.0037455747
196	0x3d72d9f3	0.059289884
197	0x3c92098a	0.017826814
198	0x3ce5f0be	0.028068896
199	0xba2f21b4	-0.00066807424
200	0x3e2645a2	0.162375
201	0x3d8718d9	0.06596536
202	0xbd770644	-0.06030871
203	0x3de845d1	0.113414414
204	0x3e0767db	0.13223211
205	0xbd72492b	-0.05915181
206	0x3d42c3b4	0.04754992
207	0x3e227daf	0.15868257
208	0x3e4701c2	0.19434264
209	0x3e234353	0.15943651
210	0x3e3012f1	0.17194726
211	0xbd37b561	-0.04485071
212	0x3d9d158f	0.076701276
213	0x3e14ae49	0.1451961
214	0x3e516969	0.20450367
215	0x3de1e383	0.110297225
216	0x3df7b842	0.12095691
217	0xbdbf1808	-0.093307555
218	0x3bae0b1a	0.005311382
219	0x3dcf353f	0.10117578
220	0xbbb6a59e	-0.0055739423
221	0xbdae2f0e	-0.08505069
222	0xbd7850b9	-0.060623858
223	0xbe6f56b2	-0.23372915
224	0x3d771b51	0.060328785
225	0x3cbb3d72	0.022856448
226	0x3d96a6b8	0.07356018
227	0x3da41bc1	0.08013106
228	0x3d579ae9	0.05263797
229	0xbd71676b	-0.058936518
230	0x3cee0704	0.02905608
231	0xbc5ae434	-0.013360072
232	0xbcfd7aa8	-0.030942276
233	0x3dc87258	0.09787434
234	0xbd198a2e	-0.037485294
235	0xbd0f2094	-0.03494318
236	0x3ca735a5	0.020411322
237	0xbd5b594b	-0.053551953
238	0x3da9de33	0.08294334
239	0xbc9df3f0	-0.019281358
240	0x3df22357	0.11823147
241	0x3dea13ec	0.11429581
242	0x3e11e38b	0.14246957
243	0xbe1c5df9	-0.15270223
244	0x3df905b3	0.1215929
245	0x3a625e22	0.00086352427
246	0xbdfa2620	-0.12214303
247	0xbca13114	-0.019676723
248	0xbd033f89	-0.032043014
249	0x3e5b7a1d	0.21433301
250	0xbc0ebea8	-0.008712448
251	0x3e098984	0.13431364
252	0x3e15db23	0.14634375
253	0x3d5de5f9	0.054174397
254	0x3cfbd296	0.030740064
255	0xbe17c1c7	-0.14820014

conv2.lin_l.bias f4 [64]
0	0xbb42055b	-0.0029605243
1	0x3d934b64	0.07192114
2	0xbc388acf	-0.011263563
3	0xbdafc028	-0.08581573
4	0xbce4a30c	-0.027909778
5	0x3dc4df12	0.0961286
6	0xbd036900	-0.032082558
7	0x3dbf8537	0.093515806
8	0x3d07ee95	0.033186514
9	0xbca6c9c7	-0.020359887
10	0x3bc52c1e	0.006017222
11	0x3d0307ac	0.03198974
12	0x3c50a482	0.012734534
13	0x3d03e05b	0.032196384
14	0x3d36d836	0.04463979
15	0x3dde9ede	0.10870145
16	0x3e07f80b	0.13278215
17	0x3d84c86a	0.064835384
18	0x3ce7dfd2	0.028304968
19	0x3d912f89	0.07089145
20	0xbcd64d35	-0.026159862
21	0x3c538d63	0.012912127
22	0xbd6b3e78	-0.05743262
23	0x3d41d8ec	0.047326013
24	0xbd308c21	-0.043102387
25	0x3d6ea276	0.058260404
26	0xbd765e04	-0.060148254
27	0x3c9ea9cb	0.019368073
28	0xbdbf47d8	-0.09339875
29	0xbd4a41e5	-0.04937925
30	0x3cb3761a	0.021906901
31	0x3dcef46c	0.101052135
32	0x3c60fb5f	0.013731807
33	0x3d67b40f	0.0565682
34	0xbd73f6c4	-0.059561506
35	0xbd51a270	-0.051180303
36	0xbd610319	-0.054934595
37	0xbce2b085	-0.027672062
38	0x3c017aa2	0.007902773
39	0x3dc8a2ac	0.09796652
40	0xbd0b97d2	-0.034080334
41	0x3daf81cb	0.08569678
42	0x3dddc29d	0.10828135
43	0x3df11a01	0.11772538
44	0x3dfc4211	0.12317289
45	0x3d747c8b	0.059689086
46	0x3cff2ca2	0.031149212
47	0x3db5788b	0.08860882
48	0xba680d7f	-0.0008852109
49	0xbda06046	-0.07830863
50	0xbdaea85e	-0.08528207
51	0xbd2a91e1	-0.041643027
52	0xbd330688	-0.0437074
53	0x3b8c1708	0.0042752065
54	0xbd018bfa	-0.031627633
55	0x3d9131a9	0.0708955
56	0x3da3ef8d	0.08004675
57	0xbd61a70c	-0.05509095
58	0xbc91ebe9	-0.017812686
59	0x3da39fb9	0.07989449
60	0x3d8a8550	0.067637086
61	0xbdddbe2b	-0.10827287
62	0x3daacaaf	0.0833944
63	0x3d6a55a7	0.05721059

conv2.lin_r.weight f4 [64, 64]
0	0x3de1ab22	0.11018969
1	0xbd9322ba	-0.07184358
2	0x3d38a345	0.04507758
3	0xbc8fe2c6	-0.017564189
4	0x3db0d7b7	0.08634894
5	0x3e1f5666	0.15560302
6	0xb8fdfdf4	-0.000121112826
7	0xbce2d489	-0.027689235
8	0x3e0c7b18	0.13718832
9	0x3b918fbe	0.004442184
10	0xbe0989b0	-0.1343143
11	0x3d742264	0.05960311
12	0xbd37d7e3	-0.04488362
13	0x3c337ff7	0.010955802
14	0x3dc3e64b	0.09565409
15	0xbdd4fa38	-0.10399288
16	0xbd08ae61	-0.033369426
17	0xbd6ed247	-0.058306005
18	0xbd1b97d7	-0.037986603
19	0xbce75619	-0.028239297
20	0x3d54cc91	0.051952902
21	0x3d44acb4	0.048016265
22	0x3d252161	0.040315036
23	0x3d5e31b6	0.054246627
24	0x3c906bd6	0.017629545
25	0x3dc80a2c	0.09767565
26	0x3e58d810	0.21176171
27	0xbe0d416c	-0.13794488
28	0x3d89b721	0.06724382
29	0xbe001e07	-0.12511455
30	0xbd5af4ea	-0.053456225
31	0xbca71b8f	-0.020398883
32	0x3c5591e6	0.013035273
33	0x3e041c7e	0.12901494
34	0x3ce5e32c	0.028062426
35	0x3e65ea9e	0.2245278
36	0x3d9bf3ab	0.07614835
37	0x3d9027ee	0.07038866
38	0x3e71f582	0.2362881
39	0x3daf8fcb	0.08572348
40	0x3d8c4a84	0.0685015
41	0xbda207d8	-0.07911652
42	0xbd7cf4e5	-0.061756987
43	0xbd53695b	-0.051614147
44	0x3e103d70	0.14085937
45	0xbe255152	-0.16144302
46	0x3e0a0a13	0.13480406
47	0xbc59e3eb	-0.013298969
48	0x3caf786e	0.02141973
49	0x3df41c24	0.1191943
50	0xbd27d998	-0.040978998
51	0xbdbcfbff	-0.09227752
52	0xbd5f4427	-0.054508355
53	0x3d52731f	0.05137932
54	0x3e2134b6	0.15742764
55	0x3da1ab80	0.07894039
56	0x3e32a7d5	0.17446835
57	0x3e200e52	0.15630463
58	0x3c1367f6	0.008996954
59	0x3d38edf8	0.04514882
60	0xbda2947f	-0.0793848
61	0x3da85359	0.08219022
62	0x3dcf3435	0.101173796
63	0x3ca5de38	0.020247564
64	0xbd54ee74	-0.05198522
65	0xbb99f392	-0.0046982253
66	0xbdb009cb	-0.08595618
67	0xbd079656	-0.033102356
68	0x3ccb6fc4	0.024833567
69	0x3d01653c	0.031590685
70	0x3dc2412a	0.09485085
71	0xbd155492	-0.036457606
72	0x3c813393	0.015771663
73	0x3d3cab82	0.046062
74	0xbd315d39	-0.043301795
75	0x3b7d8820	0.0038685873
76	0x3da931dd	0.08261464
77	0xbdbcb102	-0.09213449
78	0xbdcdc707	-0.10047727
79	0x3e46a397	0.19398342
80	0xbd506dcd	-0.050885964
81	0x3c94a75f	0.018146215
82	0x3db7b939	0.08970875
83	0xbd65035c	-0.055911407
84	0xbb2858aa	-0.0025687614
85	0x3cc76d77	0.02434419
86	0x3da8e210	0.08246243
87	0x3e5825d4	0.2110818
88	0xbd3bd988	-0.04586175
89	0xbd4ab51f	-0.049489137
90	0x3d6e72e0	0.058215022
91	0xbc9a12c3	-0.018807774
92	0x3c1ac617	0.009446642
93	0xbd4d9a8e	-0.050196223
94	0x3da74d70	0.08169067
95	0xbe30b2ec	-0.17255753
96	0x3de490ce	0.11160432
97	0xbd838456	-0.064217255
98	0x3e0f0df5	0.13970168
99	0x3dcd7b0c	0.10033235
100	0x3e5cdcc2	0.21568587
101	0xbd1e3045	-0.038620252
102	0x3d5464e9	0.051854048
103	0x3e6bafd1	0.23016287
104	0xbd63c247	-0.0556052
105	0xbc8af330	-0.016961664
106	0x3d1d3e4e	0.038389497
107	0x3ca9dcc1	0.020735146
108	0x3e181340	0.14851093
109	0xbc0d86af	-0.008638068
110	0x3e5095a4	0.20369583
111	0xbdb53d89	-0.088496275
112	0x3e08378c	0.1330244
113	0x3c1d6367	0.009606219
114	0x3e496225	0.19666345
115	0xbd26b903	-0.040703785
116	0xbda041f5	-0.0782508
117	0xbdfa5e8a	-0.12225063
118	0x3de3f84e	0.11131345
119	0x3d0c852d	0.034306694
120	0x3d25fdff	0.040525433
121	0x3e3a820b	0.1821367
122	0xbd27f159	-0.04100165
123	0x3dc6763a	0.09690519
124	0x3deec74b	0.11659106
125	0x3d83bf4f	0.064329736
126	0x3c9ea8a6	0.019367527
127	0xbd61ceae	-0.055128746
128	0x3cdd2394	0.026994504
129	0xbe30e023	-0.17273001
130	0x3e2a5a85	0.16636093
131	0xbdaaf3a6	-0.083472535
132	0x3e8fcaa3	0.28084287
133	0x3ddafeca	0.106931284
134	0x3ba7b448	0.0051179267
135	0x3ca5119d	0.02015
136	0x3e2c0db0	0.16802096
137	0x3e319d03	0.17345051
138	0x3d4f9bba	0.05068562
139	0xbda45966	-0.08024864
140	0x3d69eaf6	0.05710884
141	0xbdd1dda8	-0.10247356
142	0xbd8308cd	-0.06398163
143	0x3d14c1a2	0.036317475
144	0xbdbdf46f	-0.09275138
145	0x3e2ae6b0	0.16689563
146	0x3d823402	0.06357576
147	0x3d252121	0.040314797
148	0xbc10507f	-0.008808254
149	0x3dcc98ef	0.09990107
150	0x3df7f21f	0.12106728
151	0x3e2d6987	0.16934787
152	0xbbdbb052	-0.0067043686
153	0xbd8a30ea	-0.06747611
154	0x3e2be687	0.16787158
155	0xbe1e7985	-0.15476044
156	0xbdc152e1	-0.09439636
157	0xbd153fcd	-0.0364378
158	0xbd337f16	-0.04382237
159	0xbe025184	-0.12726408
160	0x3e55ddde	0.20885417
161	0x3d9f5744	0.077803165
162	0x3e480221	0.19532062
163	0x3e436e40	0.19085026
164	0x3e351448	0.17683518
165	0x3e316a11	0.17325617
166	0x3e04469c	0.1291756
167	0x3e228af2	0.15873316
168	0xbd4c3a27	-0.049860146
169	0xba822c28	-0.0009931372
170	0x3d69799d	0.057000745
171	0xbcba79c9	-0.02276315
172	0x3e65130e	0.2237055
173	0xbdeb49c0	-0.11488676
174	0xb9ab754e	-0.0003270306
175	0x3d1941df	0.037416335
176	0x3d8cfd13	0.068842076
177	0x3d485a4a	0.04891423
178	0x3c5bd7b1	0.013418124
179	0xbc5d1365	-0.013493394
180	0x3d9b8234	0.07593194
181	0xbe13f840	-0.14450169
182	0x3e25980a	0.1617128
183	0x3e066318	0.13123739
184	0x3cfb5f23	0.030685013
185	0x3e668fda	0.22515813
186	0xbd920306	-0.07129483
187	0xbd26d868	-0.040733725
188	0xbd8aff2d	-0.06786952
189	0x3de3d169	0.11123926
190	0xbce4571a	-0.027873565
191	0xbddd1f6c	-0.10797009
192	0x3d93dc46	0.07219748
193	0xbd9e9b1f	-0.07744431
194	0xbe0c22f4	-0.13685209
195	0x3de3b72c	0.11118922
196	0xbe16d133	-0.1472824
197	0x3c6a6578	0.014306419
198	0x3cfbbb7e	0.030729052
199	0x3d8f6d57	0.07003277
200	0x3dc7484d	0.09730587
201	0xbdd87316	-0.10568826
202	0xbd911aef	-0.07085215
203	0x3d7cc72d	0.061713386
204	0x3db38ef5	0.08767501
205	0x3dc62d10	0.09676564
206	0xbcc2e0e4	-0.023788877
207	0xbdf16bdb	-0.1178815
208	0x3da232ae	0.07919823
209	0xbd420908	-0.047371894
210	0x3df810ad	0.12112556
211	0xbcf6359e	-0.030054864
212	0xbcc96eae	-0.024588909
213	0x3b828ec2	0.003984303
214	0x3d4eb4b7	0.05046531
215	0xbd267c53	-0.04064591
216	0xbcb00ae5	-0.02148957
217	0xbc0d0bb2	-0.008608745
218	0xbe0a6846	-0.1351634
219	0x3e2cc3ba	0.16871539
220	0xbdbdc9a0	-0.092669725
221	0x3c3aaa8c	0.011393201
222	0x3df8a74f	0.121412866
223	0x3c9fb336	0.019494634
224	0x3d9374e4	0.072000295
225	0x3d092547	0.033482816
226	0x3d689fdf	0.05679309
227	0xbe49e6c0	-0.1971693
228	0xbd410faa	-0.04713408
229	0x3db40673	0.087902926
230	0xbe02512b	-0.12726276
231	0xbb31672e	-0.0027069557
232	0xbd6c06a9	-0.05762354
233	0xbe04261b	-0.12905161
234	0x3c99feb6	0.018798213
235	0x3bf3c5c0	0.007439345
236	0xbd937965	-0.072008885
237	0x3e0b016c	0.13574761
238	0xbe078b86	-0.13236818
239	0xbd299b6b	-0.041407984
240	0x3c67cf7d	0.01414859
241	0xbe2889cb	-0.16458814
242	0xbd9a3115	-0.07528893
243	0x3d61d8c2	0.055138357
244	0x3de4e65e	0.111767516
245	0x3dd5ecee	0.104455814
246	0x3d0a99b3	0.033837985
247	0xbbbb9380	-0.0057243705
248	0x3dbedc4e	0.093193635
249	0xbd304538	-0.043034762
250	0x3ce62318	0.028092906
251	0x3ade706f	0.0016970764
252	0xbcc2aad7	-0.023763103
253	0xbdf46513	-0.11933341
254	0xbd2db6d0	-0.04241067
255	0x3d9f4f1f	0.07778763

conv3.lin_l.weight f4 [64, 64]
0	0x3e54d9fd	0.20786281
1	0x3c48622f	0.01223044
2	0x3e299dcb	0.165641
3	0xbe2c2e71	-0.16814591
4	0xbbd77f54	-0.006576458
5	0xbd968b75	-0.07350818
6	0x3df2ed05	0.11861614
7	0x3d720f02	0.059096344
8	0xbbee17d2	-0.007266023
9	0xbd813a3f	-0.06309938
10	0x3db2e97c	0.0873594
11	0xbd77ac07	-0.060466792
12	0x3e112286	0.14173326
13	0x3e01269f	0.12612389
14	0x39cc4be1	0.00038966446
15	0x3d3d0492	0.046146937
16	0x3d7894c0	0.060688734
17	0x3c6470bb	0.013942893
18	0xbdbe5b62	-0.09294774
19	0x3e2ec053	0.17065553
20	0x3d9336ea	0.071882084
21	0xbdd7e471	-0.105416186
22	0xbb9c4412	-0.004768857
23	0xbc5f0b42	-0.013613524
24	0x3d677143	0.0565045
25	0x3dbaa37c	0.091132134
26	0xbe5d6264	-0.21619564
27	0x3d61fd4b	0.0551732
28	0xbda55711	-0.08073247
29	0xbd3eee6f	-0.046614107
30	0xbd6a52c2	-0.05720783
31	0x3d91792d	0.071031906
32	0x3d178aa2	0.036997445
33	0xbd499209	-0.049211536
34	0xbe0ddc1c	-0.13853496
35	0x3e033ef3	0.12816982
36	0x3e036358	0.12830865
37	0x3a41c04a	0.0007391019
38	0xbe003897	-0.12521587
39	0x3e202acd	0.15641327
40	0xbce9a5c8	-0.028521433
41	0xbd362dd1	-0.044477288
42	0x3d8fa339	0.07013554
43	0x3e1500eb	0.14551131
44	0x3c81ee0e	0.015860584
45	0x3d64aa2f	0.055826362
46	0xbd340222	-0.043947347
47	0xbd369017	-0.04457101
48	0x3d912acf	0.07088243
49	0x3d429b0c	0.047511145
50	0x3dd5a417	0.10431688
51	0x3de091eb	0.10965332
52	0x3e2c355b	0.16817228
53	0xbdef996a	-0.11699183
54	0x3a552f1c	0.0008132325
55	0x3dc78d30	0.09743726
56	0xbe2866c7	-0.16445456
57	0xbd6b8506	-0.057499908
58	0x3da74193	0.08166804
59	0xbcd62379	-0.026139962
60	0xbdb2999b	-0.08720704
61	0xbd947c53	-0.072502755
62	0xbd20f7f0	-0.03929895
63	0x3dad7827	0.08470183
64	0x3e3917a3	0.18075423
65	0xbd4e57ce	-0.050376706
66	0xbd8160de	-0.06317304
67	0xbe001194	-0.12506706
68	0xbe0bf16d	-0.13666315
69	0x3e230266	0.15918884
70	0xbd569bf6	-0.05239483
71	0x3d970e8d	0.07375822
72	0xbd90b713	-0.07066169
73	0xbd848503	-0.064706825
74	0xbd80d892	-0.062913075
75	0xbd667c31	-0.056270782
76	0x3daedf1d	0.08538649
77	0x3bfc204e	0.0076942807
78	0x3c341870	0.0109921545
79	0xbb294b61	-0.0025832283
80	0x3c99e6e0	0.018786848
81	0xbd2393df	-0.039935943
82	0x3dbe525a	0.09293051
83	0x3e0103f8	0.1259917
84	0x3d9e5516	0.077310726
85	0x3a216fdf	0.00061583327
86	0xbc6e089a	-0.014528418
87	0x3e0097da	0.12557927
88	0xbc76bfe3	-0.015060398
89	0x3da7442b	0.08167299
90	0xbc18bfae	-0.009323044
91	0x3d21659e	0.03940355
92	0x3dc711bd	0.0972018
93	0x3c507e35	0.012725403
94	0xbc9303c4	-0.017946132
95	0xbdcd5eb7	-0.10027831
96	0x3df9b7c0	0.12193251
97	0xbda37468	-0.07981187
98	0x3d90d106	0.07071118
99	0x3e711cdb	0.23546164
100	0x3e14101c	0.1445927
101	0xbd07bb8e	-0.03313785
102	0xbe072204	-0.1319657
103	0xbcf787e4	-0.030216165
104	0x3d152b53	0.03641827
105	0xbde5dca0	-0.112237215
106	0x3b5ea6b5	0.0033973877
107	0xbd88fe47	-0.066891246
108	0x3e1e6ebd	0.15471931
109	0x3e0bdade	0.1365771
110	0xbd8c032d	-0.06836543
111	0x3dcd2f7d	0.10018823
112	0x3e16ad38	0.14714515
113	0x3e316848	0.17324936
114	0xbda327fc	-0.07966611
115	0xbda5ffab	-0.081054054
116	0x3d93362b	0.07188066
117	0x3d63782f	0.055534538
118	0x3d7df9d0	0.062005818
119	0xbd97025e	-0.073734984
120	0x3c8d0beb	0.017217597
121	0x3c9a35c5	0.018824467
122	0xbc0856c6	-0.00832147
123	0x3db8f688	0.09031397
124	0xbd4a902b	-0.049453896
125	0x3da4aa8d	0.080403425
126	0xbdf04abe	-0.11733006
127	0xbd3455b3	-0.04402704
128	0xbe01944f	-0.12654231
129	0xbd45886c	-0.048225805
130	0xbc88be3b	-0.016692271
131	0x3e428b88	0.1899854
132	0x3df73b3b	0.12071844
133	0xbc679ac7	-0.014136023
134	0x3d9a8fbe	0.07546948
135	0xbd9f9a34	-0.07793084
136	0x3daba43c	0.083809346
137	0xbdb52862	-0.08845593
138	0x3cf41b56	0.029798191
139	0xbd95b493	-0.073098324
140	0x3dd24c97	0.102685146
141	0xbd81c264	-0.06335905
142	0x39594a17	0.00020722333
143	0xbda9ac03	-0.08284762
144	0xbd4094e2	-0.047016986
145	0x3cdc69e2	0.026905958
146	0xbc98c829	-0.018650131
147	0xbd934eb9	-0.071927495
148	0xbcab2bc8	-0.0208949
149	0x3db50748	0.088392794
150	0x3d9def6a	0.0771168
151	0x3ca6708a	0.020317335
152	0x3d30a8ca	0.04312972
153	0xbdd9a41d	-0.10627005
154	0x3e66f531	0.2255447
155	0x3d14560a	0.036214866
156	0xbd5ff408	-0.054676086
157	0x3e0f9b04	0.14023978
158	0x399ac9ef	0.0002952362
159	0x3ce571fb	0.028008452
160	0x3db278a0	0.08714414
161	0xbc5c115d	-0.013431874
162	0x3d7ed715	0.062216837
163	0xbe1a1c2d	-0.1504981
164	0xbd85d1c4	-0.0653415
165	0x3e175839	0.14779748
166	0xbd5087ee	-0.050910883
167	0x3da74c7e	0.081688866
168	0x3d5fdabb	0.054651957
169	0x3d9a70da	0.07541056
170	0x3caa61ee	0.02079865
171	0x3c426333	0.011864471
172	0x3d407f9c	0.046996698
173	0x3cc99ee7	0.024611903
174	0x3dc33fed	0.09533677
175	0x3d3f82aa	0.04675547
176	0xbd1f8699	-0.03894672
177	0xbd279224	-0.040910855
178	0x3da3fea6	0.08007555
179	0x3defa887	0.11702066
180	0x3d824bb2	0.06362094
181	0xbd0f65a2	-0.035009034
182	0x3dda6d63	0.10665395
183	0x3d3971a6	0.0452744
184	0x3e34dcd1	0.1766236
185	0xbdaf9214	-0.08572784
186	0x3da56028	0.08074981
187	0x3be6113b	0.007021097
188	0xbd55758e	-0.052114062
189	0x3c61f18b	0.0137904985
190	0xbbbbc218	-0.005729925
191	0x3db38169	0.087649174
192	0x3e428b86	0.18998536
193	0xbd846a24	-0.06465557
194	0x3d064e76	0.03278967
195	0xbe2abb3e	-0.1667299
196	0xbd9ccf46	-0.07656722
197	0x3e177cbd	0.14793678
198	0x3e0ea642	0.1393061
199	0xbda40d18	-0.0801031
200	0xbda931a3	-0.082614206
201	0x3d954f70	0.07290542
202	0x3dc4fbe1	0.096183546
203	0x3d392008	0.045196563
204	0x3de0d3f0	0.10977924
205	0x3dd88874	0.10572901
206	0x3c9bb19c	0.01900559
207	0x3d55d5da	0.052205898
208	0xbc5dee5f	-0.013545602
209	0x3d2eef08	0.042708427
210	0x3d8b761c	0.06809637
211	0x3bbc2374	0.005741531
212	0x3d9219fd	0.07133863
213	0xbd670688	-0.056402713
214	0x3d9f9a70	0.077931285
215	0x37a69160	1.9856438e-05
216	0x3dad2466	0.08454208
217	0xbd11bdd9	-0.035581443
218	0x3c9927f8	0.018695816
219	0xbe060ad3	-0.13090067
220	0x3deeb038	0.11654705
221	0xbe0ddc24	-0.13853508
222	0xbd99d9d7	-0.07512253
223	0x3d994fdf	0.07485937
224	0xbdbbb46e	-0.091652736
225	0xbc2fba23	-0.010725531
226	0xbcaff989	-0.021481292
227	0x3e61a57c	0.22035784
228	0xbdd7a954	-0.10530344
229	0x39311e4e	0.00016891325
230	0xbe0a4189	-0.13501562
231	0x3e0654ce	0.13118288
232	0xbd6cbbb4	-0.057796195
233	0x3bcae0be	0.006191342
234	0xbb6e325e	-0.003634594
235	0xbc8d446f	-0.017244546
236	0xbd654d53	-0.055981945
237	0x3d5caca3	0.053875577
238	0x3d2e567e	0.042562954
239	0x3b991f11	0.004672893
240	0x3ae7b8fe	0.0017679033
241	0x3e118550	0.14211011
242	0xbde815a9	-0.11332256
243	0xbcab3e53	-0.020903742
244	0x3d1807c5	0.037116785
245	0xbcecae5f	-0.02889174
246	0x3c8b8648	0.017031804
247	0x3e10eeab	0.14153545
248	0xbe25bc31	-0.1618507
249	0x3cd8f80c	0.026485465
250	0x3d042eec	0.03227131
251	0x3d27424d	0.040834714
252	0xbcb80841	-0.022464873
253	0xbcb61597	-0.022227092
254	0xbca29878	-0.019848093
255	0x3d4ac769	0.04950658

conv3.lin_l.bias f4 [64]
0	0x3c4169c6	0.0118050035
1	0x3d874492	0.066048756
2	0x3dfb4790	0.12269509
3	0x3d8c5837	0.06852763
4	0x3db67a0b	0.089099966
5	0xbd844bff	-0.064598076
6	0x3dd5d769	0.10441477
7	0xbcbdbb1e	-0.023160513
8	0x3da945c5	0.082652606
9	0x3d686397	0.0567356
10	0x3d81d8d3	0.06340184
11	0xbccf4a98	-0.025304124
12	0x3cc0b95c	0.023525886
13	0x3e1d3c57	0.15355049
14	0x3e259d96	0.16173396
15	0x3e19f06b	0.15033118
16	0xbc1581dc	-0.009125199
17	0x3c5b97b2	0.013402866
18	0x3de15805	0.110031165
19	0x3cfd689d	0.030933673
20	0xbdc05ff2	-0.093933
21	0xbc4ef4d7	-0.012631617
22	0x3d24f5ab	0.04027335
23	0x3d4797f8	0.048728913
24	0x3cebd7a4	0.028789349
25	0xbe057e9f	-0.13036583
26	0xbd44659b	-0.04794846
27	0x3d4bc0cc	0.049744412
28	0xbcc9d831	-0.02463922
29	0xbdca1553	-0.098673485
30	0xbda0fc17	-0.07860582
31	0x3ddc7491	0.10764421
32	0x3c52a02c	0.012855571
33	0x3dbcfa74	0.09227458
34	0x3e362904	0.17789084
35	0xb929e8cb	-0.00016203818
36	0x3dcabbf0	0.098991275
37	0x3cbf9b52	0.023389492
38	0xbd49159d	-0.049092878
39	0xbcab46ac	-0.020907722
40	0x3dc3ecc6	0.09566645
41	0xbc964024	-0.018341132
42	0x3dd7e0f2	0.10540952
43	0x3c94d3bc	0.018167369
44	0xbbaf0914	-0.0053416584
45	0x3d97e1fe	0.074161515
46	0x3d9ff8b2	0.07811107
47	0x3cde76bc	0.027156226
48	0xbc607f94	-0.013702292
49	0x3b944871	0.0045252373
50	0x3da5e4e6	0.081002995
51	0x3e132b45	0.14371975
52	0xbc9fd861	-0.019512357
53	0x3dfa5117	0.12222498
54	0x3e197edf	0.14989804
55	0x3db46045	0.088074245
56	0xbc84d22d	-0.0162135
57	0x3de0ab11	0.10970128
58	0xbb5db2de	-0.0033828537
59	0x3d865861	0.06559826
60	0xbd0855b9	-0.033284876
61	0xbd836d8f	-0.06417381
62	0x3dc506e2	0.096204534
63	0xbc0495ce	-0.008092357

conv3.lin_r.weight f4 [64, 64]
0	0xbcc0ac57	-0.023519678
1	0x3dd4caa6	0.103902146
2	0x3e284a12	0.16434506
3	0xbe087bb2	-0.13328436
4	0x3e1e1d1a	0.15440789
5	0x3ba53529	0.0050417376
6	0x3d87ff24	0.06640461
7	0x3dc82e1f	0.09774422
8	0xbc101aee	-0.008795483
9	0x3e5ad307	0.21369563
10	0x3e44b340	0.19209003
11	0x3e35bb85	0.17747314
12	0x3d680e30	0.056654155
13	0x3e25cdbc	0.16191763
14	0xbd77fa4c	-0.060541436
15	0xbe415623	-0.18880515
16	0xbd8f9224	-0.07010296
17	0xbd560f62	-0.052260764
18	0xbd136bfd	-0.035991658
19	0xbc99cb57	-0.018773718
20	0x3dccdfcb	0.100036226
21	0xbb9491bb	-0.004533974
22	0x3d67c962	0.056588538
23	0xbd7d11d5	-0.061784584
24	0xbde5e1af	-0.11224686
25	0xbdb12e34	-0.08651391
26	0x3c6d500c	0.014484417
27	0x3e4c8dcd	0.19975968
28	0x3e0df305	0.13862236
29	0x3dc08815	0.094009556
30	0x3e31fe4a	0.1738216
31	0x3e3c04da	0.18361226
32	0x3e1344ad	0.14381666
33	0xbd00c0af	-0.031433757
34	0x3dc87b7d	0.097891785
35	0xbd9da08e	-0.07696639
36	0xbddbb0d9	-0.107270904
37	0x3d579829	0.052635346
38	0xbd712f78	-0.05888316
39	0xbd6c58b9	-0.0577018
40	0xbdf334bb	-0.11875292
41	0x3e5e43df	0.21705578
42	0x3dbe5c97	0.09295004
43	0xbcb5ab3c	-0.022176377
44	0x3d030853	0.03199036
45	0x3e0276dd	0.12740655
46	0x3a956449	0.0011397685
47	0xbdfc68e8	-0.12324697
48	0x3d505a9b	0.050867658
49	0x3e0c76fd	0.13717265
50	0x3d3c01e5	0.045900244
51	0xbd909a6c	-0.07060704
52	0xbe421ec4	-0.18957049
53	0x3e23aa32	0.15982893
54	0x3dc3cca7	0.09560519
55	0x3da1760f	0.07883846
56	0x3d903c19	0.07042713
57	0x3e887bc5	0.2665693
58	0x3d8310e5	0.06399707
59	0x3dd7eda6	0.10543375
60	0xbe3c1146	-0.18365964
61	0xbc42c126	-0.0118868705
62	0x3e646580	0.22304344
63	0xbc009805	-0.007848744
64	0x3e2667ea	0.16250578
65	0x3e167225	0.1469198
66	0x3d095457	0.0335277
67	0x3d63b3ae	0.055591278
68	0x3daca532	0.08429946
69	0x3d5ac7ee	0.053413324
70	0x3cc810be	0.024422046
71	0x3dc35d3e	0.09539269
72	0x3e4058d0	0.1878388
73	0x3da0414b	0.07824954
74	0x3b63592b	0.00346906
75	0xbb84f018	-0.0040569417
76	0x3e448baa	0.19193903
77	0x3cc8bb84	0.024503477
78	0xbdc3bdb6	-0.09557669
79	0xbd9fb46d	-0.07798085
80	0x3e017d66	0.12645492
81	0xbd8a7414	-0.067604214
82	0xbdd4155a	-0.10355635
83	0x3becf275	0.0072310516
84	0x3e55e3ed	0.20887728
85	0xbdf8bbf2	-0.12145223
86	0x3d81d252	0.063389435
87	0xbdc62800	-0.09675598
88	0xbe2e7c78	-0.17039669
89	0xbd450fb5	-0.048110683
90	0x3e40b351	0.18818404
91	0x3cb875d6	0.022517126
92	0x3e76b5b1	0.24092747
93	0x3e25c230	0.16187358
94	0x3e41e9ce	0.18936846
95	0x3dfc9a1b	0.12334081
96	0x3e6a346b	0.22871558
97	0xbdefb1d9	-0.117038436
98	0x3d5942f5	0.05304237
99	0xbdd56ef2	-0.10421552
100	0xbe005c95	-0.12535317
101	0xbe3a483a	-0.18191615
102	0xbdfeb6f8	-0.12437242
103	0xbe244bcc	-0.16044539
104	0xbc060f48	-0.008182354
105	0x3dab84db	0.083749495
106	0x3e441646	0.19149122
107	0x3e301750	0.17196393
108	0x3d67bc54	0.056576088
109	0x3daabd7e	0.08336924
110	0xbd3ea10d	-0.04654031
111	0xbd7d6366	-0.06186237
112	0x3e47d266	0.19513854
113	0x3cee8f5d	0.029121095
114	0x3e1dc404	0.15406805
115	0xbe242ee9	-0.1603352
116	0xbe033271	-0.1281221
117	0xbcaa45c1	-0.020785214
118	0x3d63baaa	0.05559794
119	0x3cadc9a2	0.02121431
120	0x3cef37d2	0.029201422
121	0x3d887a2c	0.066639274
122	0x3db57796	0.088607
123	0x3e26f72b	0.16305225
124	0xbd96a7c4	-0.073562175
125	0x3d2e5610	0.042562544
126	0x3dcb4379	0.09924979
127	0xbd5f6e74	-0.054548696
128	0xbda9bd1b	-0.08288022
129	0xbad22c6d	-0.0016034968
130	0xbe4c2bc8	-0.19938576
131	0x3cffdc05	0.031232843
132	0xbdd2ef3d	-0.10299537
133	0xbd4d7631	-0.050161544
134	0xbdd01813	-0.10160842
135	0xbd296e30	-0.04136485
136	0xbe491cf3	-0.1963995
137	0xbd026b81	-0.031840805
138	0xbdb0f057	-0.08639591
139	0xbce00fee	-0.027351346
140	0x3cf4a3e2	0.029863302
141	0xbd46e1ae	-0.04855507
142	0x3e3f04d8	0.18654191
143	0x3e59283f	0.21206759
144	0xbd4cce12	-0.05000121
145	0x3e312bd9	0.17301883
146	0x3e052902	0.13003924
147	0x3e0a148f	0.13484405
148	0xbdb1e1ab	-0.08685621
149	0x3d1eeec8	0.03880194
150	0xbc1a07c2	-0.009401264
151	0x3b514144	0.003192977
152	0x3e651e72	0.22374895
153	0x3cfd304c	0.030906819
154	0xbc592ebd	-0.013255772
155	0xbd4d0682	-0.050055034
156	0xbdb84d75	-0.08999149
157	0xbd26ca02	-0.040719993
158	0xbc914cf8	-0.017736897
159	0x3d855763	0.06510808
160	0xbe4fe3ee	-0.20301792
161	0xbcba62af	-0.022752134
162	0xbe21e8dd	-0.15811487
163	0x3ca8ab85	0.0205896
164	0x3e704469	0.23463596
165	0x3e55db25	0.20884378
166	0x3dd744fa	0.10511203
167	0x3de18016	0.110107586
168	0x3dae09fc	0.08497998
169	0x3cda9ef3	0.026687121
170	0x3d8f8e12	0.0700952
171	0xbdf8ecc1	-0.12154532
172	0x3dfc4534	0.12317887
173	0xbc4d5823	-0.01253322
174	0x3e7e349e	0.2482476
175	0x3deb5880	0.114914894
176	0x3d8089d2	0.06276287
177	0xbd54331e	-0.05180656
178	0xbe093214	-0.1339801
179	0x3d42028f	0.04736572
180	0x3e0d6005	0.1380616
181	0xbdec53f5	-0.11539451
182	0xbd91531e	-0.070959315
183	0x3bdea5b8	0.0067946576
184	0x3d756691	0.059912268
185	0xbe296a40	-0.16544437
186	0xbcf909f1	-0.030400248
187	0x3ca7e363	0.020494169
188	0xbbe77cbb	-0.0070644296
189	0xbe3d2f15	-0.18474992
190	0xbe30fc80	-0.17283821
191	0xbb97ae8e	-0.004628963
192	0x3c6f3c66	0.014601802
193	0x3901dc11	0.0001238438
194	0x3d7af269	0.061266337
195	0xbcabf562	-0.020991031
196	0x3c645894	0.013937134
197	0x3de2c91a	0.11073513
198	0x3e30620a	0.17224899
199	0x3e4a5a6a	0.19761053
200	0x3e0068a3	0.12539916
201	0x3e53e8a5	0.20694216
202	0x3d832b89	0.06404788
203	0x3c2130fc	0.009838339
204	0x3dc27568	0.0949505
205	0xbaa2cc23	-0.0012420457
206	0xbe1d830d	-0.15382023
207	0x3c093139	0.008373552
208	0x3d03bbbc	0.03216146
209	0xbe207806	-0.15670785
210	0xbdd162ec	-0.10223946
211	0xbdae4029	-0.08508331
212	0x3d0357d4	0.03206618
213	0xbe4751ac	-0.19464749
214	0x3e734967	0.2375847
215	0xbd5b16ba	-0.05348847
216	0xbe0e5df8	-0.13903034
217	0xbd572b32	-0.05253143
218	0x3e01c1cc	0.12671584
219	0x3e0d3776	0.13790688
220	0x3e4c385d	0.19943376
221	0x3de7983b	0.113083325
222	0x3d942cc2	0.072350994
223	0x3e3697b4	0.17831308
224	0x3e152b92	0.14567402
225	0x3cc1592b	0.023602089
226	0x3e1c998f	0.15292953
227	0xbe0783e3	-0.13233905
228	0xbc8d0f5e	-0.017219242
229	0x3bcbc9cd	0.006219125
230	0xbd3e164a	-0.046407975
231	0x3c8df5bc	0.01732909
232	0x3cceab02	0.025228027
233	0x3e22c976	0.15897164
234	0xbb7be3bb	-0.0038435298
235	0x3dc321e8	0.095279515
236	0xbdef76aa	-0.11692555
237	0x3e23ee03	0.16008763
238	0xbe11e3db	-0.14247076
239	0xbd228f9b	-0.039687734
240	0x3df205b1	0.11817492
241	0xbdb62cbb	-0.088952504
242	0x3e22327f	0.15839575
243	0xbe294859	-0.16531505
244	0xbe0f6578	-0.14003551
245	0x3e3b2662	0.1827636
246	0x3e7a766a	0.24459234
247	0xbdaa622b	-0.08319505
248	0x3da5174c	0.08061084
249	0x3df3b7f1	0.119003184
250	0x3e1ec70d	0.1550562
251	0xbb0befe1	-0.0021352696
252	0xbe473d6b	-0.19457023
253	0x3e1026ea	0.14077345
254	0x3d914226	0.07092695
255	0x3cb8880d	0.022525812
